models/meso/weights.pth (torch, 125180 bytes, 30 tensors)

Incption1_conv2_1.weight f4 [4, 1, 1, 1]
0.8390858 -0.19963314 0.9104112 -0.23301165
00000000: 54ce 563f a16c 4cbe b510 693f 9b9a 6ebe

Incption1_conv2_2.weight f4 [4, 4, 3, 3]
0.046700545 -0.08707359 0.13627401 0.16280131 -0.12876317 0.14519002 0.0099450145 0.11552056
0.008649643 0.06561697 -0.018442312 0.08806458 0.008328567 -0.07081312 0.04151004 -0.055859197
-0.012811075 -0.054132182 0.12400234 -0.13699844 -0.037698414 -0.03041071 -0.10624935 0.01679382
-0.18491225 0.14347677 -0.15463017 0.11423399 0.033060376 -0.09278819 0.08535733 0.03151993
0.13236363 0.038815893 -0.04532434 0.057969935 -0.037282594 0.06302563 0.1628874 0.09306255
-0.07440949 0.09329874 0.06216739 0.1247061 -0.09952653 -0.17077419 -0.05640266 -0.14051925
0.13794391 0.048158128 0.07017541 0.02001255 -0.042772524 0.12767904 -0.11005016 0.0038398365
-0.09877973 0.048490208 -0.058590315 0.048556123 -0.0020259921 0.17834553 -0.09646574 -0.106645055
-0.09200994 0.13407513 0.057134904 0.16009665 -0.13516174 -0.19545208 -0.16816328 -0.11240551
0.08413333 0.09151049 0.14794758 -0.08150996 -0.11008158 0.08790225 -0.06461789 0.09890323
-0.040245093 0.0726295 -0.1540928 -0.090600096 0.04505172 0.03136226 -0.041523915 0.09377541
0.110611275 -0.11541177 -0.06988444 0.18355447 -0.04366037 -0.054615356 -0.15716481 -0.09398109
0.043521322 -0.023019785 -0.12090515 -0.013442061 -0.13956185 -0.14483081 -0.092056744 -0.14291409
-0.10270899 0.15952457 0.032281272 0.05118959 -0.19134505 -0.10560819 -0.059129108 0.00942016
-0.15110125 -0.059660077 -0.12289838 -0.04147925 -0.07499343 0.025638498 -0.11055243 -0.10497741
-0.078010984 -0.049613737 -0.13853623 0.15632948 0.010081439 0.14862584 0.013871332 -0.13695012
0.10988472 -0.061746374 -0.069092594 -0.12561595 -0.18821178 0.004848437 -0.0500745 0.09911037
-0.13383861 0.122763135 -0.10188431 -0.021949457 0.022552712 0.10576697 0.16801769 0.1568597
00000000: 1249 3f3d a353 b2bd 6a8b 0b3e 63b5 263e
00000010: 7eda 03be b1ac 143e 6af0 223c 0b96 ec3d
00000020: 3bb7 0d3c 3162 863d 5514 97bc 345b b43d
00000030: 8b74 083c 7806 91bd 6f06 2a3d 9dcc 64bd
00000040: 8be5 51bc b5b9 5dbd f0f4 fd3d 5249 0cbe
00000050: a769 1abd e21f f9bc 4299 d9bd 3193 893c
00000060: a359 3dbe 93eb 123e 5f57 1ebe 83f3 e93d
00000070: 516a 073d bc07 bebd d3cf ae3d 0b1b 013d
00000080: 558a 073e 6afd 1e3d 04a6 39bd e271 6d3d
00000090: a2b5 18bd 9513 813d f4cb 263e 9497 be3d
000000a0: 0164 98bd 6913 bf3d 3ca3 7e3d e965 ff3d
000000b0: 91d4 cbbd 6edf 2ebe 7a06 67bd 47e4 0fbe
000000c0: 2b41 0d3e 7541 453d 20b8 8f3d 5cf1 a33c
000000d0: 3e32 2fbd 4bbe 023e fa61 e1bd c4a5 7b3b
000000e0: 074d cabd ab9d 463d 66fc 6fbd c9e2 463d
000000f0: 82c6 04bb 36a0 363e d48f c5bd b968 dabd
00000100: b56f bcbd fe4a 093e 4a06 6a3d 60f0 233e
00000110: d767 0abe 9724 48be ff32 2cbe dc34 e6bd
00000120: 184e ac3d da69 bb3d 927f 173e b2ee a6bd
00000130: 7472 e1bd 1806 b43d 6256 84bd c78d ca3d
00000140: 0ad8 24bd c6be 943d 81ca 1dbe 8b8c b9bd
00000150: 2788 383d b775 003d fb14 2abd 520d c03d
00000160: 2a88 e23d 025d ecbd 931f 8fbd b4f5 3b3e
00000170: 37d5 32bd 5ab4 5fbd d0ef 20be 2879 c0bd
00000180: 6a43 323d fd93 bcbc 1f9d f7bd 173c 5cbc
00000190: 4de9 0ebe 874e 14be 3f88 bcbd 1258 12be
000001a0: 1759 d2bd 695a 233e 5e39 043d 2dac 513d
000001b0: f5ef 43be 1b49 d8bd 5d31 72bd 0457 1a3c
000001c0: 49ba 1abe 205e 74bd 25b2 fbbd 25e6 29bd
000001d0: 2896 99bd d407 d23c 5069 e2bd 65fe d6bd
000001e0: 39c4 9fbd c637 4bbd 71dc 0dbe d614 203e
000001f0: 9f2c 253c 5f31 183e 9544 633c a73c 0cbe
00000200: 3d0b e13d c4e9 7cbd 6b80 8dbd 78a1 00be
00000210: 97ba 40be a3df 9e3b eb1a 4dbd 61fa ca3d
00000220: fd0c 09be 3d6b fb3d b9a8 d0bd 59cf b3bc
00000230: 77c0 b83c 5a9c d83d d40c 2c3e d49f 203e

Incption1_conv3_1.weight f4 [4, 1, 1, 1]
-0.7691323 0.27635968 -0.43971124 -0.12761267
00000000: dbe5 44bf 047f 8d3e d521 e1be e5ac 02be

Incption1_conv3_2.weight f4 [4, 4, 3, 3]
-0.15943618 0.14232273 -0.1446354 0.08629121 0.055139832 0.0420559 -0.10404397 0.14224574
0.026491515 0.05570877 -0.1371718 0.09162858 -0.023407925 -0.073726974 0.15336554 0.050064817
-0.083500184 -0.07460205 -0.043246154 0.083106145 -0.06531891 -0.096652485 -0.05943114 -0.13525148
0.044841025 0.119316705 -0.16610372 0.00195486 0.074399315 0.0058017923 -0.06212945 0.08187648
0.07371468 0.046598084 -0.038311124 -0.053769134 0.018704427 -0.027207261 -0.037583962 0.13160576
0.1405645 -0.02977459 -0.057819217 -0.014117997 -0.016617805 0.03808702 0.043441836 -0.1627192
-0.08704997 0.13921858 0.07640034 0.01153154 -0.082744084 -0.09398275 -0.14787355 -0.05215514
0.06765992 0.13081375 0.07432732 -0.1592673 -0.11936839 -0.042394366 0.1523561 0.023779865
-0.041023463 0.078783795 -0.03617391 -0.10655095 0.104676664 -0.09155332 -0.047621522 -0.16453342
0.07665062 0.07463107 0.026074419 -0.09309745 -0.16395856 -0.11939436 0.13965109 0.12168002
0.19089165 0.12198781 0.09388479 0.033650924 -0.14706577 -0.14026767 -0.16879731 0.052658763
-0.121478856 -0.08305257 -0.12971145 -0.08119169 -0.15090907 -0.08541737 0.055164747 -0.033547822
0.11816949 -0.010883955 -0.069908835 -0.06228275 -0.12935919 -0.0833547 -0.13219726 0.09202664
-0.097768925 0.09796516 0.115801066 0.16723908 -0.08942627 0.11108111 -0.04507726 0.01444167
0.07732377 -0.087354615 -0.058340546 -0.06578294 -0.15308759 0.041750748 -0.15391529 0.06917746
0.16721949 0.23035787 0.023782259 -0.07554514 0.065043196 0.10558282 -0.12608095 -0.04510387
-0.06527206 -0.060863823 -0.15848768 -0.13088486 -0.108965054 -0.18364671 0.11844437 0.17136806
-0.032376416 0.0153389685 -0.110678166 -0.2197935 -0.21744123 0.002669279 -0.113654405 -0.115281284
00000000: 3d43 23be 0dbd 113e 4d1b 14be 72b9 b03d
00000010: 4eda 613d cf42 2c3d 0115 d5bd dea8 113e
00000020: bc04 d93c e12e 643d c476 0cbe c4a7 bb3d
00000030: fac1 bfbc 2bfe 96bd db0b 1d3e c410 4d3d
00000040: 2502 abbd f6c8 98bd e122 31bd 8e33 aa3d
00000050: ecc5 85bd bdf1 c5bd 116e 73bd 5d7f 0abe
00000060: 39ab 373d 515c f43d 1817 2abe 1c1d 003b
00000070: ab5e 983d f61c be3b 737b 7ebd dbae a73d
00000080: b9f7 963d a2dd 3e3d 20ec 1cbd 063d 5cbd
00000090: 073a 993c c3e1 debc a4f1 19bd a9c3 063e
000000a0: 24f0 0f3e d7e9 f3bc d8d3 6cbd 2c4f 67bc
000000b0: 1022 88bc 2301 1c3d 11f0 313d dd9f 26be
000000c0: 4147 b2bd 518f 0e3e c877 9c3d c9ee 3c3c
000000d0: bb75 a9bd 077a c0bd 2a6c 17be a1a0 55bd
000000e0: 4991 8a3d 0af4 053e ec38 983d f816 23be
000000f0: 6a77 f4bd b7a5 2dbd 3d03 1c3e fecd c23c
00000100: 3808 28bd 6659 a13d 182b 14bd 6237 dabd
00000110: b860 d63d 4f80 bbbd c90e 43bd 737b 28be
00000120: 00fb 9c3d 2dd8 983d 059a d53c e0a9 bebd
00000130: c1e4 27be 0885 f4bd b200 0f3e 6033 f93d
00000140: 1a79 433e bfd4 f93d ab46 c03d 8dd5 093d
00000150: 6998 16be 54a2 0fbe 34d9 2cbe b7b0 573d
00000160: e8c9 f8bd 7717 aabd 14d3 04be d447 a6bd
00000170: e887 1abe 4def aebd 6ef4 613d 7169 09bd
00000180: d802 f23d 9e52 32bc 5d2c 8fbd 321c 7fbd
00000190: bc76 04be deb5 aabd b85e 07be 7778 bc3d
000001a0: 133b c8bd f5a1 c83d 1c29 ed3d b940 2b3e
000001b0: 1f25 b7bd 7e7e e33d efa2 38bd c19c 6c3c
000001c0: ed5b 9e3d fae6 b2bd 7ff6 6ebd 35b9 86bd
000001d0: fec2 1cbe d502 2b3d f89b 1dbe eaac 8d3d
000001e0: 963b 2b3e efe2 6b3e 03d3 c23c 69b7 9abd
000001f0: 5e35 853d ce3b d83d 5d1b 01be d6be 38bd
00000200: 5cad 85bd 584c 79bd 984a 22be ae06 06be
00000210: 1229 dfbd e20d 3cbe f692 f23d 1c7b 2f3e
00000220: 229d 04bd 4c50 7b3c 3cab e2bd 8c11 61be
00000230: eaa8 5ebe 12ef 2e3b a4c3 e8bd 9818 ecbd

Incption1_conv4_1.weight f4 [2, 1, 1, 1]
-0.0728772 -0.33898407
00000000: a440 95bd 528f adbe

Incption1_conv4_2.weight f4 [2, 2, 3, 3]
-0.07354297 0.00010678515 -0.049371507 -0.08192501 -0.09337531 -0.1741322 0.2002955 -0.014966437
0.115183055 -0.08055075 0.011655422 0.21912798 0.10226579 -0.18983375 0.104110055 0.22931914
0.1360604 0.20952056 0.24217735 0.045217667 0.06448645 -0.099771105 -0.0060725883 0.18003221
0.06092052 -0.18931426 -0.26115626 -0.14070527 -0.1484671 -0.16313383 0.0019707838 0.19844818
0.046347395 -0.23548353 -0.2378314 0.033179387
00000000: b29d 96bd d7f1 df38 c739 4abd 4dc8 a7bd
00000010: 8e3b bfbd b64f 32be 431a 4d3e c935 75bc
00000020: 18e5 eb3d cbf7 a4bd 62f6 3e3c 1663 603e
00000030: ba70 d13d c763 42be a737 d53d a3d2 6a3e
00000040: 6b53 0b3e 8f8c 563e 57fd 773e 2936 393d
00000050: 7911 843d cb54 ccbd 90fc c6bb 5d5a 383e
00000060: cc87 793d 99db 41be 46b6 85be 0b15 10be
00000070: c207 18be 8e0c 27be 4428 013b 0036 4b3e
00000080: c4d6 3d3d 9822 71be 138a 73be 1ce7 073d

Incption1_bn.weight f4 [11]
1.0051197 0.9545715 0.9618843 0.9459181 1.0109224 1.0014014 0.9928866 1.035599
0.9973746 1.0037943 1.0106189
00000000: c3a7 803f cc5e 743f 0d3e 763f b027 723f
00000010: e865 813f ec2d 803f d12d 7e3f 828e 843f
00000020: f153 7f3f 557c 803f f65b 813f

Incption1_bn.bias f4 [11]
0.007412316 0.01773865 0.021825373 0.03111435 -0.052828833 -0.03029243 0.023898091 -0.0018292448
0.024818037 0.019639198 -0.0058201947
00000000: 03e3 f23b a550 913c 20cb b23c 85e3 fe3c
00000010: 0c63 58bd d527 f8bc eec5 c33c 45c3 efba
00000020: 324f cb3c 62e2 a03c 55b7 bebb

Incption1_bn.running_mean f4 [11]
-0.00549634 -0.012860232 0.048128586 -0.103377834 -0.022266114 -0.038451575 0.033645473 -0.12099941
-0.1088513 0.00383583 -0.0091207605
00000000: a41a b4bb b9b3 52bc 7b22 453d c2b7 d3bd
00000010: 6d67 b6bc 667f 1dbd d6cf 093d 8ace f7bd
00000020: 6eed debd 8c62 7b3b 3e6f 15bc

Incption1_bn.running_var f4 [11]
0.09504253 1.0078248 4.6694894 87.71722 39.47889 5.188832 10.396844 20.038216
33.224457 1.7236557 7.1268525
00000000: a8a5 c23d 6700 813f 756c 9540 376f af42
00000010: 62ea 1d42 e90a a640 7959 2641 444e a041
00000020: d8e5 0442 c0a0 dc3f 2d0f e440

Incption2_conv1.weight f4 [2, 11, 1, 1]
-0.20189169 0.06262353 0.14550556 -0.1525933 -0.017722439 0.004366896 0.05778412 -0.18062168
-0.2705963 -0.2545996 -0.12976693 0.2989857 -0.13252254 -0.2205792 0.08366012 0.031077988
0.10891972 0.23117718 0.22000384 -0.30652902 0.028184574 0.15588006
00000000: b2bc 4ebe c440 803d 69ff 143e 6b41 1cbe
00000010: a62e 91bc 2e18 8f3b 0baf 6c3d e4f4 38be
00000020: 998b 8abe e15a 82be 9fe1 04be a714 993e
00000030: fdb3 07be 84df 61be ff55 ab3d 4497 fe3c
00000040: 4d11 df3d b6b9 6c3e b048 613e 5ff1 9cbe
00000050: 56e3 e63c 069f 1f3e

Incption2_conv2_1.weight f4 [4, 11, 1, 1]
0.05500399 -0.12446282 0.33030492 -0.1082659 -0.20285717 -0.24327123 0.051067643 0.15672986
0.080447145 0.14234436 -0.27142698 -0.29359058 -0.038756896 0.25431103 0.14850982 -0.1934746
-0.07112422 -0.2022426 -0.19356556 0.02298248 0.12921834 0.27619934 -0.2907394 0.07221183
-0.16193882 0.15000491 0.26376158 0.006041734 0.2404638 -0.22742635 -0.091384076 0.11821713
-0.03187092 -0.04161265 -0.12521987 0.17190371 0.13141206 0.08009609 -0.17918067 -0.28933948
0.053583283 0.10729957 -0.13734011 -0.08634554
00000000: dd4b 613d 5de6 febd ba1d a93e 83ba ddbd
00000010: cab9 4fbe 181c 79be 4e2c 513d cb7d 203e
00000020: 79c1 a43d b8c2 113e 7af8 8abe 8151 96be
00000030: 8dbf 1ebd 0e35 823e f512 183e 351e 46be
00000040: 93a9 91bd af18 4fbe 0d36 46be c145 bc3c
00000050: d051 043e 006a 8d3e cbdb 94be cce3 933d
00000060: 4ad3 25be e39a 193e c20b 873e bdf9 c53b
00000070: 243c 763e 74e2 68be 9327 bbbd d31b f23d
00000080: 158b 02bd 0772 2abd a339 00be 8707 303e
00000090: e290 063e 6b09 a43d 237b 37be 4e24 94be
000000a0: 257a 5b3d e1bf db3d e3a2 0cbe eed5 b0bd

Incption2_conv2_2.weight f4 [4, 4, 3, 3]
0.14440319 0.02642478 0.01731148 -0.13524318 -0.18645726 -0.12037742 -0.050419256 -0.082443945
0.04188342 -0.03687836 -0.04508727 0.15738145 -0.005035275 0.062305763 -0.09471468 -0.08883796
0.029895272 -0.15816066 -0.1102598 -0.003301437 -0.053911418 -0.079404585 0.12066902 0.13004053
-0.007844946 -0.04587931 -0.17629361 -0.04828934 0.057693306 0.07110042 -0.0112594785 -0.03987214
0.16273664 -0.066406414 0.14332193 -0.018450255 -0.000757555 -0.02433568 0.07021578 -0.014656441
0.17448461 0.034248397 0.15463027 0.22956556 -0.008954073 -0.15485156 0.09384499 0.11102198
-0.1315879 -0.0051003965 -0.13397115 -0.17894012 0.00089593075 0.022622162 0.052136082 -0.032095395
0.12959044 0.06421206 -0.0931066 0.0069744643 0.013378231 0.014200362 -0.15059231 0.052852664
-0.10388106 -0.121503234 -0.07298145 0.17122383 0.16597573 0.12545869 0.10765046 0.12369293
-0.05296304 -0.12538372 0.08023258 -0.09416567 -0.13644005 -0.03507718 0.07758011 0.08012355
-0.07509256 -0.12316247 -0.012278712 -0.094404295 -0.08561216 0.07134083 -0.038890377 0.20439897
0.19555818 0.074585564 0.043932367 0.047811355 0.001732852 -0.028263807 -0.018295674 0.018916002
0.13257451 -0.04188841 -0.060655512 0.013586056 -0.041835383 0.056446675 0.14342046 0.15430903
0.14411888 -0.03335486 -0.046978086 0.022411732 0.018711768 0.008258241 -0.13813688 -0.011985149
-0.15225914 -0.109692425 -0.15914023 0.048347272 -0.25230452 0.119743474 -0.01073666 0.011959141
0.10997766 -0.0109526105 0.09558178 0.15876889 -0.12782317 0.057121392 0.032988086 0.07302615
0.060843185 0.08137654 -0.079203054 -0.057963353 0.11184424 0.096143804 -0.002811675 -0.14118405
0.00989396 -0.088411056 0.10346199 -0.1051741 0.0025620547 0.03888602 0.069231965 0.17837386
00000000: 6ede 133e c878 d83c ced0 8d3c 307d 0abe
00000010: a7ee 3ebe 7088 f6bd 6c84 4ebd 5fd8 a8bd
00000020: f38d 2b3d c30d 17bd 6ead 38bd 9a28 213e
00000030: f3fe a4bb 5434 7f3d c5f9 c1bd adf0 b5bd
00000040: eee6 f43c def4 21be e4cf e1bd ec5c 58bb
00000050: 38d2 5cbd df9e a2bd 5221 f73d 5829 053e
00000060: 1788 00bc f2eb 3bbd 5086 34be 0bcb 45bd
00000070: d14f 6c3d 199d 913d ad79 38bc f850 23bd
00000080: 6fa4 263e 1600 88bd fcc2 123e fd24 97bc
00000090: a896 46ba 9f5b c7bc 4acd 8f3d 9221 70bc
000000a0: 18ac 323e 0c48 0c3d 6657 1e3e 3c13 6b3e
000000b0: 1bb4 12bc 6891 1ebe cd31 c03d 7e5f e33d
000000c0: fabe 06be 3a21 a7bb bc2f 09be 143c 37be
000000d0: e5dc 6a3a 1d52 b93c a58c 553d 7676 03bd
000000e0: 5bb3 043e 9d81 833d acae bebd 0c8a e43b
000000f0: 5e30 5b3c a3a8 683c df34 1abe 097c 583d
00000100: 98bf d4bd b0d6 f8bd 4c77 95bd 4d55 2f3e
00000110: 8bf5 293e 3e78 003e d877 dc3d b852 fd3d
00000120: c6ef 58bd 9764 00be fb50 a43d eed9 c0bd
00000130: f1b6 0bbe 17ad 0fbd 52e2 9e3d d117 a43d
00000140: 21ca 99bd 9b3c fcbd a72c 49bc 0a57 c1bd
00000150: 6e55 afbd 241b 923d 844b 1fbd f74d 513e
00000160: 6740 483e 51c0 983d 6df2 333d d7d5 433d
00000170: dd20 e33a 8089 e7bc cfe0 95bc bbf5 9a3c
00000180: 9dc1 073e 2e93 2bbd ea71 78bd 0d98 5e3c
00000190: 945b 2bbd a134 673d d0dc 123e 3003 1e3e
000001a0: e693 133e 1b9f 08bd 186c 40bd cf98 b73c
000001b0: 6c49 993c 934d 073c c173 0dbe 5c5d 44bc
000001c0: d2e9 1bbe 6ca6 e0bd a8f5 22be ca07 463d
000001d0: 0f2e 81be 113c f53d d1e8 2fbc 46f0 433c
000001e0: f83b e13d 9472 33bc 61c0 c33d 5094 223e
000001f0: 14e4 02be 1ff8 693d 841e 073d bc8e 953d
00000200: b436 793d bea8 a63d 3635 a2bd fb6a 6dbd
00000210: 980e e53d 0be7 c43d 1444 38bb 8d92 10be
00000220: 471a 223c db10 b5bd e1e3 d33d 8565 d7bd
00000230: 25e8 273b f346 1f3d 7dc9 8d3d a3a7 363e

Incption2_conv3_1.weight f4 [4, 11, 1, 1]
0.043238275 0.22318305 0.23038217 0.17135671 -0.15946643 -0.03842469 0.10613839 -0.06565391
0.13470855 -0.056192208 -0.22596775 0.120228834 0.10920648 0.11516239 0.2882139 0.18748732
0.31003046 0.051251218 -0.26842734 -0.22390929 -0.21751928 -0.26740643 -0.08938679 -0.21048993
-0.22710103 -0.1655549 -0.31179395 -0.21906504 0.10290574 0.2627918 -0.11873342 -0.07646623
0.18087189 -0.18920958 -0.07740771 0.16698615 -0.28637505 0.050866686 0.28698492 0.06307229
0.08209727 -0.1566737 0.011221851 -0.022341907
00000000: 9e1a 313d 198a 643e 4ee9 6b3e 2278 2f3e
00000010: 2b4b 23be 3563 1dbd 165f d93d 8f75 86bd
00000020: 0af1 093e cd29 66bd 1764 67be 893a f63d
00000030: a6a7 df3d 42da eb3d c690 933e adfc 3f3e
00000040: 50bc 9e3e ccec 513d 4f6f 89be 7a48 65be
00000050: 60bd 5ebe 7fe9 88be 6c10 b7bd ac8a 57be
00000060: 2c8d 68be 3987 29be 75a3 9fbe 9652 60be
00000070: 3fc0 d23d a68c 863e 822a f3bd 549a 9cbd
00000080: 7b36 393e 28c0 41be ef87 9ebd 6bfe 2a3e
00000090: c09f 92be 9659 503d b0ef 923e 0b2c 813d
000000a0: 9d22 a83d 126f 20be dbdb 373c 6006 b7bc

Incption2_conv3_2.weight f4 [4, 4, 3, 3]
0.03189117 0.074998625 0.14812618 -0.10967001 -0.013770019 -0.077047236 -0.13937673 -0.02903552
-0.12642804 0.13261844 -0.00072803284 -0.12982692 0.045774754 -0.2739978 -0.034890167 -0.03950782
-0.13890775 -0.1653203 -0.048423734 0.12505943 0.15287022 0.112342484 -0.06384691 -0.13265742
0.085911684 0.019695505 -0.010358706 0.048356306 -0.080432534 -0.039645337 0.1715513 -0.050140187
0.044615187 -0.12831481 -0.05983234 -0.061015468 -0.112070285 -0.045885168 0.053888645 -0.20975421
0.007004387 -0.14139916 -0.059394807 0.10117123 0.111123666 -0.05968084 -0.039003205 -0.15260099
-0.07767748 -0.1614805 -0.054151412 0.0074770846 -0.19561507 0.09426546 0.11518222 -0.17290449
-0.07011376 0.05106076 -0.029047323 -0.011462306 -0.064363204 0.14800206 -0.060700018 0.16942614
0.035987675 0.034608614 0.11431929 -0.02890147 -0.095389105 -0.08972362 0.0733557 -0.16813959
0.07330506 -0.13205922 0.11808845 0.07608916 0.014443053 0.0843553 0.0677352 0.10725806
-0.07618712 -0.012071523 0.105492994 0.165182 0.045709517 -0.13837132 0.15676518 -0.04368539
-0.038333565 -0.11254791 -0.019669328 0.12819871 0.011177743 -0.09999014 0.03576589 -0.09587448
0.15753303 -0.11527564 -0.08222556 -0.13743573 -0.088060625 0.030611133 0.13367446 -0.006163997
0.17435764 0.015341435 0.08656411 0.21410953 0.15029979 -0.107859306 0.15971264 0.0651225
-0.0625692 -0.062786005 -0.16964276 0.023584286 -0.16122118 0.047818493 0.072697155 -0.14418802
0.04518893 -0.033749834 0.090462565 0.12112084 -0.1693873 0.17883906 0.12489573 0.05795481
-0.17582637 -0.045627307 -0.05270528 -0.053805333 0.09560453 0.09552679 0.12027547 -0.02271569
0.0708057 0.13189244 -0.12628959 -0.13787813 -0.045167677 0.12600787 -0.097556636 -0.08445076
00000000: 51a0 023d e198 993d 64ae 173e ac9a e0bd
00000010: a59b 61bc f1ca 9dbd c6b8 0ebe e6db edbc
00000020: 5a76 01be 21cd 073e 75d9 3eba 59f1 04be
00000030: 4f7e 3b3d 7149 8cbe fee8 0ebd f4d2 21bd
00000040: d53d 0ebe ba49 29be f757 46bd 940f 003e
00000050: 038a 1c3e d113 e63d 2bc2 82bd 59d7 07be
00000060: 77f2 af3d 7858 a13c 90b7 29bc 4311 463d
00000070: d0b9 a4bd 2663 22bd 25ab 2f3e cc5f 4dbd
00000080: 6abe 363d f564 03be c112 75bd 5beb 79bd
00000090: 1b85 e5bd 16f2 3bbd 57ba 5c3d cfc9 56be
000000a0: 0f85 e53b f1ca 10be f847 73bd dd32 cf3d
000000b0: ce94 e33d e573 74bd d3c1 1fbd 6f43 1cbe
000000c0: 5f15 9fbd 255b 25be dfcd 5dbd 5502 f53b
000000d0: 514f 48be 400e c13d a8e4 eb3d e00d 31be
000000e0: ce97 8fbd 1625 513d a7f4 edbc 65cc 3bbc
000000f0: dbd0 83bd da8d 173e 95a0 78bd 0c7e 2d3e
00000100: d067 133d c3c1 0d3d 3b20 ea3d c7c2 ecbc
00000110: 5d5b c3bd 04c1 b7bd 833b 963d c92c 2cbe
00000120: f720 963d 883a 07be 5bd8 f13d a2d4 9b3d
00000130: 8ea2 6c3c 79c2 ac3d c1b8 8a3d 1daa db3d
00000140: fe07 9cbd a3c7 45bc b60c d83d 7825 293e
00000150: e739 3b3d 36b1 0dbe 0d87 203e 74ef 32bd
00000160: a803 1dbd 857f e6bd 9221 a1bc 8646 033e
00000170: da22 373c a1c7 ccbd 417f 123d d759 c4bd
00000180: 5750 213e a215 ecbd e065 a8bd f4bb 0cbe
00000190: 2159 b4bd 33c4 fa3c f5e1 083e 5bfb c9bb
000001a0: cf8a 323e a45a 7b3c 8648 b13d 873f 5b3e
000001b0: 30e8 193e 57e5 dcbd b68b 233e f25e 853d
000001c0: 4824 80bd f395 80bd d5b6 2dbe d533 c13c
000001d0: 2a17 25be 53dd 433d 3fe2 943d 06a6 13be
000001e0: 0718 393d 443d 0abd 7044 b93d 340e f83d
000001f0: dd73 2dbe 9621 373e 55c9 ff3d 0662 6d3d
00000200: d40b 34be b3e3 3abd 7ee1 57bd fb62 5cbd
00000210: 4fcc c33d 8da3 c33d fc52 f63d 4116 babc
00000220: 9402 913d d00e 073e 0f52 01be ed2f 0dbe
00000230: be01 39bd 3508 013e c6cb c7bd 85f4 acbd

Incption2_conv4_1.weight f4 [2, 11, 1, 1]
0.16742815 0.15194705 0.18706986 -0.2569096 -0.24506955 0.122269854 0.29903594 0.21854815
0.007069754 0.0813981 0.22644453 -0.22929978 -0.10226356 0.16018134 -0.16745518 -0.09871208
0.27498785 0.10262888 0.17763801 -0.14575706 -0.074814275 0.2998212
00000000: 4972 2b3e 0298 1b3e 3e8f 3f3e a889 83be
00000010: 83f3 7abe 9e68 fa3d 3d1b 993e 16cb 5f3e
00000020: 65a9 e73b 0cb4 a63d 13e1 673e 90cd 6abe
00000030: 8f6f d1bd 9406 243e 5f79 2bbe 8f29 cabd
00000040: 35cb 8c3e 172f d23d bde6 353e 5741 15be
00000050: 3a38 99bd 2a82 993e

Incption2_conv4_2.weight f4 [2, 2, 3, 3]
-0.16902381 0.008396269 0.12599029 -0.14164293 0.24382754 -0.11440155 -0.025627173 -0.055582892
-0.12220838 -0.24827461 0.14375941 0.07052344 -0.20746012 -0.13892378 0.20465948 0.065274745
0.09366691 -0.1261111 -0.08709333 -0.052140288 -0.035254106 -0.13846196 0.004178127 0.022402808
0.008879028 0.06482614 -0.058611616 0.13188007 0.13359599 -0.0549436 -0.24779414 0.12535489
0.104052685 -0.02745264 0.271191 -0.053954963
00000000: 9414 2dbe 8190 093c 9903 013e d80a 11be
00000010: edad 793e 5c4b eabd 14f0 d1bc e3aa 63bd
00000020: 6348 fabd b33b 7ebe ab35 133e 986e 903d
00000030: 6d70 54be 0942 0ebe 4192 513e c4ae 853d
00000040: 70d4 bf3d 4523 01be fd5d b2bd 0e91 55bd
00000050: 9c66 10bd f9c8 0dbe abe8 883b 1886 b73c
00000060: 5879 113c 91c3 843d bc12 70bd 920b 073e
00000070: 63cd 083e 8a0c 61bd bfbd 7dbe 085d 003e
00000080: 9319 d53d 5ce4 e0bc 8cd9 8a3e e1ff 5cbd

Incption2_bn.weight f4 [12]
1.1144607 0.95045096 0.9900653 1.0631924 1.0075884 0.9707976 0.9729061 0.925705
0.95474297 0.9424586 1.0056492 0.9435487
00000000: a6a6 8e3f c150 733f eb74 7d3f b016 883f
00000010: a8f8 803f 3186 783f 6010 793f 01fb 6c3f
00000020: 096a 743f f844 713f 1db9 803f 688c 713f

Incption2_bn.bias f4 [12]
-0.0148508465 0.010205773 0.0049792137 -0.00087969913 -0.028361585 0.017334007 0.07382083 0.0057142735
-0.004417191 -0.03417316 0.002279828 -0.053306837
00000000: f750 73bc 1d36 273c ac28 a33b 9c9b 66ba
00000010: 8e56 e8bc 0c00 8e3c 602f 973d cd3e bb3b
00000020: 15be 90bb 28f9 0bbd 2b69 153b 4558 5abd

Incption2_bn.running_mean f4 [12]
-0.14004624 0.024578754 -0.03173663 -0.047822997 -0.039033014 0.0035526594 -0.11056129 -0.0670604
0.07503959 -0.0316593 -0.056721088 -0.065136254
00000000: 4868 0fbe 6259 c93c 45fe 01bd 0ce2 43bd
00000010: 15e1 1fbd bcd3 683b f56d e2bd f756 89bd
00000020: 5bae 993d 2fad 01bd 5f54 68bd 2866 85bd

Incption2_bn.running_var f4 [12]
0.30338606 0.18895708 0.17356274 0.07675117 0.06266084 0.070226036 0.072900474 0.045879632
0.056246135 0.022775488 0.046157707 0.028939178
00000000: 6b55 9b3e f77d 413e 6eba 313e b82f 9d3d
00000010: 5454 803d abd2 8f3d d84c 953d 48ec 3b3d
00000020: 5962 663d a993 ba3c dd0f 3d3d db11 ed3c

conv1.weight f4 [16, 12, 5, 5]
0.054733496 0.05819218 -0.032568306 0.014685778 -0.07329623 0.012239206 0.05858847 0.039886177
0.13159086 0.06889546 -0.02176127 -0.06835673 0.030944092 -0.052866597 -0.031561904 -0.00364687
0.040871993 0.07300267 -0.010275391 -0.04229004 0.038697146 0.03775769 0.051424533 0.06542487
0.0049237227 0.06591854 0.07165664 -0.0087077115 0.05219371 0.048374183 0.0413606 -0.021886537
-0.0036692652 -0.003432834 0.0135376565 0.036310043 -0.0017588296 0.023182882 -0.031130355 0.07108482
-0.0036290365 -0.04703673 -0.018492838 -0.041589707 0.017782426 -0.04509331 0.011710687 0.025355486
-2.3303288e-05 0.02244716 -0.039346714 -0.035802737 -0.09966428 -0.08234296 -0.030003801 -0.008501794
-0.03353939 -0.0017077411 0.0212214 -0.011247503 -0.07323644 -0.05374844 0.02450373 -0.0138982255
0.033023115 0.033971865 0.03754598 0.06697355 0.04296726 -0.0021122152 -0.1133117 0.001247475
-0.03849681 -0.047550254 0.024935193 0.05011979 0.040299978 -0.008352731 -0.07023852 -0.017102782
0.07272927 0.019201845 -0.0042143776 -0.03393595 -0.018719457 -0.016390836 -0.010866102 0.08570362
0.03667814 0.057957266 -0.013784773 -0.00059238146 0.051949505 0.06787119 0.059254516 -0.017844092
-0.10820359 -0.11565425 -0.041419543 -0.016323749 -0.026439654 -0.0042610597 0.028227527 0.04262627
0.014750341 0.0036560982 -0.014937707 -0.011631428 -0.026686946 0.047127627 0.008712373 0.034236427
-0.00061537395 0.010479942 0.038674515 -0.046252657 0.030285701 0.04755679 -0.018208737 -0.10018143
0.01869171 0.018870946 -0.025317652 -0.027552845 -0.05443517 0.01982241 0.062378958 -0.00012436027
-0.02299714 -0.040800143 0.022710854 -0.014722072 0.018271636 0.077934444 0.016495654 -0.033771064
0.026488706 -0.06414946 -0.04169492 0.03225483 -0.06328337 -0.04791717 -0.028551474 -0.061847497
-0.0740462 -0.0243871 0.036144186 0.03330845 -0.025361529 -0.029239316 -0.0321746 -0.072518185
-0.048661232 -0.07425295 -0.03343748 -0.07584788 -0.07491836 -0.06129321 -0.009063705 -0.0675583
-0.0023571176 0.0058194455 0.023897627 0.0861745 -0.075794466 -0.01099227 0.003724262 0.08597856
0.033232022 -0.04800118 -0.016416842 -0.08335078 -0.031357825 -0.010985797 -0.009154372 0.015092743
-0.027424237 0.0072851926 0.015511765 0.034976944 0.011452156 -0.021269873 -0.00080265914 0.06566041
0.035637096 -0.022955135 -0.010775473 0.0046510254 0.023234356 0.015891613 0.005903075 0.040309444
0.039342236 -0.04775051 0.0141196055 -0.041449357 -0.015952175 -0.024538772 -0.02541451 -0.034752123
0.053396784 0.012168878 -0.027437853 0.054120727 -0.0003268666 0.011690712 -0.0007445174 -0.01243468
-0.041731846 0.024964163 -0.020955501 -0.036361795 -0.020193493 0.012028366 -0.018607028 -0.054995716
-0.074588515 -0.10932795 -0.025606683 -0.014307066 -0.059103306 -0.033295766 -0.017256562 -0.037874237
0.020076282 -0.08519997 -0.012130495 0.031599652 -4.0003183e-06 -0.06933772 -0.053523354 -0.09751402
-0.05978721 0.007769138 0.008887403 0.036410578 -0.051813442 -0.035773322 -0.002448661 0.021163177
-0.032663673 0.010007347 -0.02171743 -0.027458156 0.030609332 -0.029335 -0.09219624 -0.08327175
-0.078758925 -0.0780346 0.05037059 0.007917167 -0.068962716 -0.08515044 -0.024283601 -0.0386256
00000000: 3b30 603d ec5a 6e3d 5866 05bd 9e9c 703c
00000010: 551c 96bd f386 483c 77fa 6f3d b05f 233d
00000020: c1bf 063e 1019 8d3d b144 b2bc 9dfe 8bbd
00000030: 777e fd3c a58a 58bd 0e47 01bd 5300 6fbb
00000040: 6469 273d 6d82 953d 1d5a 28bc 5238 2dbd
00000050: e680 1e3d cfa7 1a3d 88a2 523d 79fd 853d
00000060: 2e57 a13b 4d00 873d b7c0 923d caaa 0ebc
00000070: 12c9 553d 0224 463d bc69 293d 654b b3bc
00000080: 0e78 70bb 66f9 60bb 0ccd 5d3c d7b9 143d
00000090: 8788 e6ba 07ea bd3c 1605 ffbc eb94 913d
000000a0: 21d5 6dbb 96a9 40bd 4b7e 97bc f859 2abd
000000b0: 73ac 913c c3b3 38bd 2ede 3f3c 4fb6 cf3c
000000c0: 6e7b c3b7 1be3 b73c 052a 21bd e4a5 12bd
000000d0: c91c ccbd 6da3 a8bd 88ca f5bc 1c4b 0bbc
000000e0: 9960 09bd 48d6 dfba 80d8 ad3c 7247 38bc
000000f0: fdfc 95bd 5327 5cbd 0cbc c83c 62b5 63bc
00000100: 3f43 073d 1526 0b3d d0c9 193d 6e29 893d
00000110: 70fe 2f3d 176d 0abb f70f e8bd 5182 a33a
00000120: d5ae 1dbd 0ec4 42bd e444 cc3c 694a 4d3d
00000130: 9711 253d e5d9 08bc 37d9 8fbd 221b 8cbc
00000140: 15f3 943d 304d 9d3c c318 8abb 6c00 0bbd
00000150: 8c59 99bc 1346 86bc bc07 32bc 6185 af3d
00000160: d13b 163d 9964 6d3d 87d9 61bc 0c4a 1bba
00000170: 01c9 543d 0d00 8b3d ddb4 723d c62d 92bc
00000180: d899 ddbd 23dc ecbd 8aa7 29bd 62b9 85bc
00000190: f997 d8bc 5ca0 8bbb 6a3d e73c e298 2e3d
000001a0: 6aab 713c 269b 6f3b 49bd 74bc bf91 3ebc
000001b0: 959e dabc e608 413d 57be 0e3c 7f3b 0c3d
000001c0: 0c51 21ba 10b4 2b3c 2b69 1e3d 6d73 3dbd
000001d0: b819 f83c e9ca 423d 7d2a 95bc ec2b cdbd
000001e0: 5b1f 993c 3e97 9a3c f766 cfbc 81b6 e1bc
000001f0: 6af7 5ebd 9b62 a23c 1481 7f3d b566 02b9
00000200: 8064 bcbc 0d1e 27bd 1d0c ba3c d834 71bc
00000210: 66ae 953c 189c 9f3d e521 873c 8753 0abd
00000220: d8fe d83c cb60 83bd 4bc8 2abd a41d 043d
00000230: b69a 81bd cb44 44bd c8e4 e9bc cd53 7dbd
00000240: 89a5 97bd 75c7 c7bc ed0b 143d 716e 083d
00000250: fbc2 cfbc 4a87 efbc 83c9 03bd 6a84 94bd
00000260: 0051 47bd ee11 98bd bdf5 08bd 2256 9bbd
00000270: cc6e 99bd 970e 7bbd ef7f 14bc 025c 8abd
00000280: df79 1abb 0cb1 be3b f5c4 c33c 427c b03d
00000290: 213a 9bbd ec18 34bc bf12 743b 8715 b03d
000002a0: 4d1e 083d e39c 44bd 9d7c 86bc d0b3 aabd
000002b0: 1071 00bd c6fd 33bc 38fc 15bc 8d47 773c
000002c0: cba8 e0bc a0b8 ee3b 0f25 7e3c fc43 0f3d
000002d0: d3a1 3b3c 283e aebc 8b69 52ba f778 863d
000002e0: 34f8 113d 680c bcbc 9c8b 30bc a167 983b
000002f0: fa55 be3c 212f 823c 956e c13b 841b 253d
00000300: 5325 213d 0a96 43bd eb55 673c cdc6 29bd
00000310: 23ae 82bc 8905 c9bc 1732 d0bc 3e58 0ebd
00000320: 96b6 5a3d f95f 473c 59c5 e0bc b2ad 5d3d
00000330: 4b5f abb9 668a 3f3c b82b 43ba d4ba 4bbc
00000340: 03ef 2abd a581 cc3c dfaa abbc 1bf0 14bd
00000350: d36c a5bc a012 453c c46d 98bc 3043 61bd
00000360: ddc1 98bd 55e7 dfbd 1bc5 d1bc 2f68 6abc
00000370: 4f16 72bd 2461 08bd a25d 8dbc 0422 1bbd
00000380: 0477 a43c 527d aebd fcbe 46bc a36e 013d
00000390: 793a 86b6 ef00 8ebd 4e3b 5bbd 6eb5 c7bd
000003a0: 6fe3 74bd 4194 fe3b 789c 113c 4223 153d
000003b0: 553a 54bd 0c87 12bd b779 20bb 665e ad3c
000003c0: 58ca 05bd dbf5 233c c0e8 b1bc edef e0bc
000003d0: 6cc0 fa3c f44f f0bc 62d1 bcbd 618a aabd
000003e0: 5c4c a1bd 9bd0 9fbd 6451 4e3d 01b7 013c
000003f0: 533c 8dbd 5b63 aebd 67ee c6bc e135 1ebd

bn1.weight f4 [16]
0.9667895 0.9867973 0.9791584 0.9513962 0.93396354 0.93776387 0.982684 1.0128045
0.99101114 0.9497072 0.9346845 0.9467873 0.90140283 0.99852645 1.0014584 0.9902083
00000000: 847f 773f bf9e 7c3f 20aa 7a3f b48e 733f
00000010: 3c18 6f3f 4b11 703f 2e91 7b3f 94a3 813f
00000020: e8b2 7d3f 0320 733f 7c47 6f3f a760 723f
00000030: 56c2 663f 6e9f 7f3f ca2f 803f 4b7e 7d3f

bn1.bias f4 [16]
0.028876152 0.052607663 0.004710208 0.019839728 0.0073148757 0.00071233336 0.02333331 0.021007631
-0.0023602054 -0.020941371 0.060841296 0.052965984 -0.090187296 0.029584408 0.026927294 -0.014711799
00000000: ae8d ec3c 227b 573d 1758 9a3b ed86 a23c
00000010: a0b1 ef3b e2bb 3a3a 7f25 bf3c 3218 ac3c
00000020: adad 1abb 3d8d abbc b934 793d dcf2 583d
00000030: 1eb4 b8bd 005b f23c a196 dc3c c209 71bc

bn1.running_mean f4 [16]
0.03169664 0.12875673 0.11436237 0.18207541 0.21105775 0.2017714 0.1084095 0.16740705
0.15412995 0.24952494 0.19708352 0.03341755 0.32089555 0.33429003 0.4324824 0.14697784
00000000: 56d4 013d ced8 033e d136 ea3d fa71 3a3e
00000010: 861f 583e 299d 4e3e cd05 de3d c16c 2b3e
00000020: 3ed4 1d3e 7783 7f3e 43d0 493e d7e0 083d
00000030: 6c4c a43e 1028 ab3e 556e dd3e 5c81 163e

bn1.running_var f4 [16]
0.043416508 0.108386144 0.03347742 0.058862485 0.18211693 0.18753801 0.034501992 0.08917509
0.07348567 0.19599049 0.13264623 0.05272887 0.12403487 0.12543467 0.50525373 0.15440007
00000000: 82d5 313d 8ef9 dd3d 9f1f 093d ca19 713d
00000010: dc7c 3a3e f709 403e f651 0d3d 6ea1 b63d
00000020: a87f 963d bbb1 483e 6ad4 073e 3afa 573d
00000030: fe05 fe3d f271 003e 4f58 013f 0d1b 1e3e

conv2.weight f4 [16, 16, 5, 5]
-0.017960204 -0.005127685 0.022835942 -0.014865566 -0.06974067 0.0068089077 0.006728515 -0.007484242
-0.011562881 0.005430505 0.07372488 0.030858597 0.054477215 0.01284054 -0.03137019 0.020858746
-0.021162214 -0.03695128 -0.009852851 -0.06138355 -0.028873457 -0.009060625 0.00917945 0.005166097
0.053538393 -0.006885269 0.06812541 0.08964563 0.024448862 -0.011265804 -0.005107424 0.07279137
0.034959827 0.04413331 -0.05744083 -0.009580798 0.020811692 0.02269255 -0.012821209 -0.019799238
0.036601905 0.007618591 -0.010875457 -0.03762104 0.0153207425 -0.012559185 0.027105825 -0.009745597
-0.0064625996 -0.06753977 -0.01475289 0.00732356 -0.048664313 -0.05330156 -0.025768677 0.019324712
0.031133574 -0.02547161 -0.044321265 -0.07181556 -0.008108001 -0.02472679 0.0101464195 -0.08708469
-0.035085715 -0.013791458 0.020180615 0.001486888 -0.05907197 -0.052355636 -0.11063659 0.017537104
-0.024474347 -0.022078646 0.062996395 0.06778959 -0.006116164 0.030121969 0.014382611 0.005387063
0.0013171011 -0.03402493 -0.026124066 -0.038003463 -0.03226161 0.0035274704 -0.04210047 -0.07193038
-0.03482907 -0.042974688 -0.0064501213 -0.059688292 -0.03429072 -0.08213412 0.018191408 -0.034491558
-0.06394391 -0.031429693 -0.0036704333 0.028622547 -0.016943071 0.013555941 -0.045522686 -0.022659898
0.01393447 -0.012383398 0.029533876 0.028332585 -0.041181 -0.082952715 0.069532126 0.014415858
0.044274844 -0.09080321 -0.04517706 -0.0654455 -0.03455733 -0.060772076 -0.08438332 -0.03564706
0.008546169 -0.01222887 0.0053458204 0.031334937 -0.01405661 -0.023488415 0.036534708 0.023270326
0.041885115 0.030402303 0.058742084 -0.020769585 0.012924364 -0.01773314 -0.021862065 0.07702086
0.00033432688 0.051871978 -0.006310881 0.021982063 0.005777372 -0.02157263 -0.012871463 -0.03217926
0.054488067 -0.06824729 0.0026053903 -0.022167519 -0.05312193 0.031634096 -0.0060023204 -0.0491308
-0.029085513 -0.05001498 0.033172894 0.016513735 -0.036249824 0.023927204 0.042605106 0.0933489
0.029170325 0.00413593 0.059716906 0.0069112545 -0.09317349 -0.0830977 -0.11573879 -0.076748654
-0.062048472 -0.032848716 -0.06006316 0.011437467 -0.061827924 -0.066942014 0.011639807 -0.024134384
0.015972331 0.019584745 0.048477 0.05994076 0.0069278283 0.04722408 0.05038546 0.07520587
-0.058026258 0.039914727 0.066831276 0.01056449 -0.15402943 -0.09074718 -0.027473608 -0.014490883
-0.063555814 -0.06117689 -0.005360662 0.0013491443 -0.06925589 -0.036273215 -0.12127792 -0.03029001
-0.0029920316 -0.048879486 0.016204923 0.015630445 0.028551107 -0.03029152 0.012605602 0.004234318
-0.007344742 0.04297206 0.037364863 0.08449483 -0.025589406 -0.101749785 0.004811182 0.008690929
-0.0070242193 -0.0008838017 -0.019928554 0.024968615 -0.10262085 -0.06472398 -0.051842634 -0.035572648
-0.07633875 0.043633036 -0.038004804 0.00027650985 0.033571567 0.040076163 0.03603744 -0.042172033
-0.017763615 0.024919728 0.034185067 0.024745805 -0.03565017 -0.010499152 0.0009885437 0.03068145
-0.058311734 -0.020152535 -0.05318742 -0.057281822 -0.04167097 -0.04026623 -0.09789294 -0.06622401
-0.01318169 -0.037542555 -0.010110277 0.0029369919 0.004781332 -0.051071145 -0.011451724 0.0011333026
00000000: 4721 93bc 2406 a8bb 7112 bb3c b48e 73bc
00000010: 32d4 8ebd 421d df3b e07a dc3b 5f3e f5bb
00000020: 3d72 3dbc 61f2 b13b 12fd 963d 2bcb fc3c
00000030: 8023 5f3d 2161 523c 077e 00bd f6df aa3c
00000040: 615c adbc 3a5a 17bd da6d 21bc 516d 7bbd
00000050: 0788 ecbc 0473 14bc 6765 163c 5d48 a93b
00000060: 134b 5b3d d39d e1bb 5685 8b3d 2198 b73d
00000070: fb48 c83c 3594 38bc 2e5c a7bb a413 953d
00000080: 0932 0f3d 21c5 343d 1347 6bbd c8f8 1cbc
00000090: 487d aa3c bae5 b93c 0c10 52bc 0332 a2bc
000000a0: e1eb 153d 60a5 f93b f92e 32bc 8518 1abd
000000b0: da03 7b3c 0ac5 4dbc 090d de3c ffab 1fbc
000000c0: 37c4 d3bb 4a52 8abd 1bb6 71bc 79fa ef3b
000000d0: 3b54 47bd bd52 5abd d518 d3bc dc4e 9e3c
000000e0: d60b ff3c d6a9 d0bc 378a 35bd 0914 93bd
000000f0: 6cd7 04bc d68f cabc 2b3d 263c 7559 b2bd
00000100: 0ab6 0fbd 91f5 61bc d151 a53c afe3 c23a
00000110: 73f5 71bd dd72 56bd 7095 e2bd f9a9 8f3c
00000120: 6d7e c8bc 47de b4bc 4104 813d 45d5 8a3d
00000130: 1a6a c8bb 59c2 f63c 0ba5 6b3c f685 b03b
00000140: 94a2 ac3a ba5d 0bbd 2302 d6bc 85a9 1bbd
00000150: c024 04bd 222d 673b 8b71 2cbd 3c50 93bd
00000160: eda8 0ebd 3a06 30bd 8a5b d3bb b67b 74bd
00000170: 6d74 0cbd ef35 a8bd 2606 953c 0547 0dbd
00000180: 06f5 82bd 6cbc 00bd a78b 70bb d579 ea3c
00000190: 32cc 8abc bd19 5e3c ff75 3abd 40a1 b9bc
000001a0: 674d 643c bce3 4abc 07f1 f13c bd19 e83c
000001b0: 69ad 28bd 1de3 a9bd dc66 8e3d 7e30 6c3c
000001c0: 8a59 353d 09f7 b9bd 950b 39bd 4a08 86bd
000001d0: fd8b 0dbd 24ec 78bd 29d1 acbd a702 12bd
000001e0: 3b05 0c3c 995b 48bc fe2b af3b 1059 003d
000001f0: b24d 66bc c76a c0bc 6ba5 153d 69a1 be3c
00000200: ba8f 2b3d 400e f93c 8a9b 703d fa24 aabc
00000210: b6c0 533c 1745 91bc 1318 b3bc 1dbd 9d3d
00000220: 9848 af39 b677 543d 82cb cebb ba13 b43c
00000230: 1c50 bd3b 16b9 b0bc d4e2 52bc 66ce 03bd
00000240: e12e 5f3d 3cc5 8bbd 32bf 2a3b a898 b5bc
00000250: 6296 59bd c192 013d 1daf c4bb 613d 49bd
00000260: be44 eebc 82dc 4cbd 4de0 073d d047 873c
00000270: b27a 14bd fc02 c43c b182 2e3d b52d bf3d
00000280: 9bf6 ee3c b286 873b b799 743d ce77 e23b
00000290: bed1 bebd 202f aabd 7508 edbd 662e 9dbd
000002a0: 8a26 7ebd 608c 06bd ca04 76bd 3764 3b3c
000002b0: 473f 7dbd e518 89bd e4b4 3e3c 79b5 c5bc
000002c0: 68d8 823c 3070 a03c d28f 463d 7184 753d
000002d0: d602 e33b 096e 413d fc60 4e3d 8905 9a3d
000002e0: f1ac 6dbd a07d 233d d6de 883d af16 2d3c
000002f0: e4b9 1dbe a8d9 b9bd 5510 e1bc 2b6b 6dbc
00000300: 8d29 82bd 9e94 7abd 7ea8 afbb c5d5 b03a
00000310: 08d6 8dbd 3993 14bd 8f60 f8bd c122 f8bc
00000320: f615 44bb db35 48bd 30c0 843c 6b0b 803c
00000330: 03e4 e93c ec25 f8bc ba87 4e3c 09c0 8a3b
00000340: 29ac f0bb 7903 303d e60b 193d a00b ad3d
00000350: e0a0 d1bc 3162 d0bd 1fa7 9d3b 6664 0e3c
00000360: 6c2b e6bb eeae 67ba 3541 a3bc fb8a cc3c
00000370: e12a d2bd 028e 84bd f158 54bd a0b4 11bd
00000380: 7e57 9cbd 8eb8 323d edaa 1bbd 86f8 9039
00000390: 5782 093d e726 243d ff9b 133d 95bc 2cbd
000003a0: 0085 91bc 7524 cc3c a405 0c3d b7b7 ca3c
000003b0: ea05 12bd a304 2cbc 0692 813a aa57 fb3c
000003c0: 49d8 6ebd ee16 a5bc 0ddb 59bd 58a0 6abd
000003d0: 2eaf 2abd 34ee 24bd 187c c8bd 74a0 87bd
000003e0: 04f8 57bc 39c6 19bd 93a5 25bc 8c7a 403b
000003f0: b8ac 9c3b fa2f 51bd 03a0 3bbc 538b 943a

fc1.weight f4 [16, 1024]
0.008741918 0.056830224 0.05615288 0.061328888 0.0522238 0.0028659746 0.035968196 0.0034085955
0.036670856 0.048896104 0.007225439 -0.036888193 -0.032307837 -0.022259448 -0.015332645 0.012732457
0.026444543 -0.0072772023 0.007942665 -0.0009030421 0.020613017 0.030625734 -0.013658137 0.0062573487
0.0040680687 0.00040379533 -0.011888817 0.029968275 -0.0037691828 0.026860582 0.019786913 0.0104845045
0.008493137 0.021206304 0.004288669 0.015615971 0.032342575 0.015488543 0.0024641708 0.033145558
0.029828299 0.03411009 0.0104983775 -0.0041094106 0.009540544 0.031069117 0.022774722 0.03385977
0.026969275 -0.004389172 -0.0043315017 0.014153517 0.0022606151 0.0033837461 0.018871997 0.012623605
0.033273894 0.0049729994 0.026879882 0.0029841047 0.0026339162 0.039772473 0.019548306 0.042914215
-0.05326815 -0.045029905 -0.05983309 -0.002444406 -0.013894502 -0.024939602 0.04349394 -0.012767956
-0.018489579 0.029955572 0.0034973335 0.028812014 0.02151846 0.021475201 -0.0136490725 -0.014901352
0.0320354 0.019884475 0.0032310642 0.01565206 0.004656834 -2.8312184e-05 0.0016567614 0.017411783
0.023494124 0.024020912 -0.008715165 -0.0030726756 -0.021742826 -0.006531291 -0.0037215971 -0.014745462
0.012389515 -0.013050378 -0.021794058 -0.013671788 -0.008647112 -0.018947408 0.004794827 -0.0037518432
-0.01644672 -0.0046853456 -0.020311244 -0.0011209893 -0.0071693202 -0.007952294 -0.005184062 -0.014360689
0.005030047 -0.019237842 -0.006932319 0.0075926213 -0.0030261532 -0.019008212 0.010483448 -0.016920298
-0.014022717 0.003934347 -0.015324485 -0.002301016 0.0033212667 0.00648463 -0.0135626355 0.013331727
-0.0034707012 -0.04396347 -0.026563467 -0.03571918 -0.04785219 -0.00660015 0.053198867 0.035817638
0.05107353 -0.008730716 0.026239054 -0.04775363 -0.009226289 -0.028256247 -0.04675344 -0.019302031
0.03708093 0.027786268 0.027072277 0.00946862 0.06279018 0.009433071 -0.0037966697 -0.0066203126
0.0008121782 -0.000953599 0.015525048 0.028583597 0.01223379 0.015837496 0.026420563 -0.009362266
0.008260726 0.01916528 0.013657754 0.0016571371 0.0032387094 -0.0026589094 0.030273823 0.0014211813
0.0068701566 0.010694191 -0.0069251377 -0.0029227387 -0.0033416797 0.014398657 -0.0019612007 -0.005713002
-0.0030743838 0.0032885603 0.0047691087 -0.0023604948 0.016026989 0.0058597852 -0.0043489654 0.019661421
0.014908975 0.013473557 0.027052203 0.0056702667 0.025593478 -0.002652194 -0.0022224153 0.015957968
-0.029413084 0.007310153 -0.031312563 -0.016458942 0.031892173 0.004324042 0.053439483 0.05209816
0.02349337 0.01808242 -0.007919276 -0.06603599 -0.043907 -0.021846935 -0.009272417 -0.01791158
0.050398145 0.009003426 0.0059092036 -0.0074852877 0.04740332 0.042065516 -0.015565416 0.0002116171
-0.030310811 -0.022488138 -0.009977513 0.01750251 0.027286517 -0.0045223017 0.031016082 0.030627362
0.013159593 -0.007516216 0.014841511 0.0121489335 -0.000893285 0.028160475 -0.01068395 -0.00048120043
-0.0010182597 0.0012884585 0.02399039 0.0060986923 0.010350659 -0.012907968 -0.008053595 0.02140828
-0.0004301941 0.015194273 -0.010274065 -0.00569505 0.017982006 0.022378145 0.008518291 -0.013321635
-0.0070835873 -0.0010962927 0.013200702 -0.019906135 -0.015662506 -0.024389211 -0.017231219 0.01825011
00000000: 433a 0f3c cfc6 683d 9000 663d 0034 7b3d
00000010: a0e8 553d 13d3 3b3b 6353 133d be62 5f3b
00000020: 2e34 163d 4847 483d 60c3 ec3b 1318 17bd
00000030: 3955 04bd 7259 b6bc c635 7bbc cc9b 503c
00000040: 3aa2 d83c 9975 eebb f421 023c 21ba 6cba
00000050: a1dc a83c d2e2 fa3c 61c6 5fbc 720a cd3b
00000060: 6f4d 853b 7eb4 d339 50c9 42bc 0780 f53c
00000070: 6504 77bb b90a dc3c 2a18 a23c 33c7 2b3c
00000080: cc26 0b3c d8b8 ad3c f787 8c3b 21da 7f3c
00000090: a679 043d a8c3 7d3c ed7d 213b a3c3 073d
000000a0: 7a5a f43c 06b7 0b3d 6301 2c3c 3ca8 86bb
000000b0: f14f 1c3c a984 fe3c 0e92 ba3c 8bb0 0a3d
000000c0: abee dc3c 0bd3 8fbb 45ef 8dbb 27e4 673c
000000d0: d426 143b d7c1 5d3b 7299 9a3c 3dd3 4e3c
000000e0: 354a 083d 8bf4 a23b 3333 dc3c f890 433b
000000f0: c89d 2c3b 76e8 223d c523 a03c d1c6 2f3d
00000100: b42f 5abd 4771 38bd 8b13 75bd 5432 20bb
00000110: c4a5 63bc 234e ccbc b426 323d b030 51bc
00000120: 7577 97bc 6365 f53c 8533 653b 2c07 ec3c
00000130: 7b47 b03c c3ec af3c 5ca0 5fbc cd24 74bc
00000140: 8d37 033d c4e4 a23c 43c0 533b c038 803c
00000150: 5b98 983b f47f edb7 b027 d93a 28a3 8e3c
00000160: c076 c03c 81c7 c43c 0dca 0ebc f15e 49bb
00000170: 031e b2bc 7104 d6bb 0ae6 73bb f396 71bc
00000180: 64fd 4a3c 41d1 55bc 7489 b2bc a3ff 5fbc
00000190: 9eac 0dbc 9837 9bbc ed1d 9d3b 7ce1 75bb
000001a0: 46bb 86bc 8787 99bb c463 a6bc 29ee 92ba
000001b0: 9eec eabb 574a 02bc 10df a9bb 1849 6bbc
000001c0: 18d3 a43b ae98 9dbc 8228 e3bb 86cb f83b
000001d0: 6d52 46bb 1cb7 9bbc c5c2 2b3c 709c 8abc
000001e0: 8abf 65bc b2eb 803b 8c13 7bbc a4cc 16bb
000001f0: 9ca9 593b 057d d43b d135 5ebc 516d 5a3c
00000200: b474 63bb 0a13 34bd a19b d9bc 464e 12bd
00000210: a800 44bd 1246 d8bb 0ee7 593d 84b5 123d
00000220: 7a32 513d 470b 0fbc 49f3 d63c 4f99 43bd
00000230: dc29 17bc a579 e7bc 8980 3fbd 4b1f 9ebc
00000240: 2ce2 173d 07a0 e33c aec6 dd3c 4522 1b3c
00000250: 2398 803d 2b8d 1a3c 8cd1 78bb 35ef d8bb
00000260: 5be8 543a f2fa 79ba c55c 7e3c 2628 ea3c
00000270: 3c70 483c a3bd 813c f06f d83c 3164 19bc
00000280: ff57 073c 8100 9d3c c6c4 5f3c 4b34 d93a
00000290: 8740 543b 1941 2ebb cf00 f83c ee46 ba3a
000002a0: 0d1f e13b b036 2f3c 44ec e2bb 6b8b 3fbb
000002b0: 1500 5bbb 58e8 6b3c 7d87 00bb 2234 bbbb
000002c0: 9a7b 49bb e384 573b 2f46 9c3b 88b2 1abb
000002d0: 084b 833c 7103 c03b c481 8ebb fd10 a13c
000002e0: c644 743c 32c0 5c3c 959c dd3c a5cd b93b
000002f0: 6aa9 d13c 6ed0 2dbb f1a5 11bb 49ba 823c
00000300: b5f3 f0bc 028a ef3b 9a41 00bd e7d4 86bc
00000310: 5ea1 023d b1b0 8d3b 5ce3 5a3d e164 553d
00000320: 2b75 c03c 9521 943c dabf 01bc e13d 87bd
00000330: d4d7 33bd 58f8 b2bc 56eb 17bc 4ebb 92bc
00000340: 496e 4e3d 1b83 133c fea1 c13b 2547 f5bb
00000350: fc29 423d e44c 2c3d 1606 7fbc 88e5 5d39
00000360: 614e f8bc 0b39 b8bc b978 23bc 6d61 8f3c
00000370: f987 df3c d12f 94bb 7015 fe3c 3ce6 fa3c
00000380: 559b 573c 974a f6bb cf29 733c 520c 473c
00000390: 572b 6aba ccb0 e63c bc0b 2fbc a149 fcb9
000003a0: 2077 85ba 7ee1 a83a 7f87 c43c 8ad7 c73b
000003b0: cf95 293c f17b 53bc 3af3 03bc 6b60 af3c
000003c0: ad8b e1b9 66f1 783c 8d54 28bc 8b9d babb
000003d0: 004f 933c 5f52 b73c 4d90 0b3c fd42 5abc
000003e0: 701d e8bb 7bb1 8fba c247 583c 3112 a3bc
000003f0: a84e 80bc e2cb c7bc 7c28 8dbc 4181 953c

fc1.bias f4 [16]
-0.035152834 0.013828869 -0.01886431 -0.0008835343 -0.0026683023 -0.009632977 -0.002593986 0.004085445
-0.02072812 -0.00950285 0.006016652 0.005770583 -0.0046063247 -0.027663702 0.015962442 0.014422227
00000000: 6bfc 0fbd 7b92 623c 5389 9abc fc9c 67ba
00000010: afde 2ebb a2d3 1dbc ddff 29bb 32df 853b
00000020: 05ce a9bc d7b1 1bbc 5627 c53b 2917 bd3b
00000030: a7f0 96bb fd9e e2bc abc3 823c 344b 6c3c

fc2.weight f4 [1, 16]
-0.12568642 -0.082156256 0.11592138 0.034244962 0.08965064 -0.061817795 0.12851897 0.009207337
0.12377609 0.14557911 0.00022770546 -0.00085670245 0.104280405 -0.10854667 -0.13833769 0.14183018
00000000: f1b3 00be 8a41 a8bd 3068 ed3d 7244 0c3d
00000010: c19a b73d a834 7dbd 7a9a 033e 5fda 163c
00000020: 527e fd3d b112 153e 38c4 6e39 5494 60ba
00000030: f790 d53d b74d debd 65a8 0dbe ee3b 113e
